…
      "SWITCH_PROB": 0.5
    },
    "CUTMIX": {
      "ENABLE": false,
      "ALPHA": 0.0,
      "MINMAX": null
    },
    "RANDOM_ERASING": {
      "ENABLE": false,
      "PROB": 0.25,
      "MODE": "const",
      "COUNT": [
        1,
        1
      ],
      "NUM_SPLITS": 0,
      "AREA_RANGE": [
        0.02,
        0.33
      ],
      "MIN_ASPECT": 0.3
    },
    "LABEL_SMOOTHING": 0.0,
    "SSV2_FLIP": false
  },
  "PAI": false,
  "USE_MULTISEG_VAL_DIST": false
}

[05/18 19:42:11][INFO] utils.misc:  155: Model:
BaseVideoModel(
  (backbone): FactorizedTransformer(
    (stem): TubeletEmbeddingStem(
      (conv1): Conv3d(3, 768, kernel_size=(2, 16, 16), stride=(2, 16, 16))
    )
    (layers): Sequential(
      (0): BaseTransformerLayer(
        (norm): LayerNorm((768,), eps=1e-06, elementwise_affine=True)
        (attn): Attention(
          (to_qkv): Linear(in_features=768, out_features=2304, bias=True)
          (attn_dropout): Dropout(p=0.0, inplace=False)
          (proj): Linear(in_features=768, out_features=768, bias=True)
          (ff_dropout): Dropout(p=0.0, inplace=False)
        )
        (norm_ffn): LayerNorm((768,), eps=1e-06, elementwise_affine=True)
        (ffn): FeedForward(
          (net): Sequential(
            (0): Linear(in_features=768, out_features=3072, bias=True)
            (1): GELU()
            (2): Dropout(p=0.0, inplace=False)
            (3): Linear(in_features=3072, out_features=768, bias=True)
            (4): Dropout(p=0.0, inplace=False)
          )
        )
        (drop_path): Identity()
      )
      (1): BaseTransformerLayer(
        (norm): LayerNorm((768,), eps=1e-06, elementwise_affine=True)
        (attn): Attention(
          (to_qkv): Linear(in_features=768, out_features=2304, bias=True)
          (attn_dropout): Dropout(p=0.0, inplace=False)
          (proj): Linear(in_features=768, out_features=768, bias=True)
          (ff_dropout): Dropout(p=0.0, inplace=False)
        )
        (norm_ffn): LayerNorm((768,), eps=1e-06, elementwise_affine=True)
        (ffn): FeedForward(
          (net): Sequential(
            (0): Linear(in_features=768, out_features=3072, bias=True)
            (1): GELU()
            (2): Dropout(p=0.0, inplace=False)
            (3): Linear(in_features=3072, out_features=768, bias=True)
            (4): Dropout(p=0.0, inplace=False)
          )
        )
        (drop_path): DropPath()
      )
      (2): BaseTransformerLayer(
        (norm): LayerNorm((768,), eps=1e-06, elementwise_affine=True)
        (attn): Attention(
          (to_qkv): Linear(in_features=768, out_features=2304, bias=True)
          (attn_dropout): Dropout(p=0.0, inplace=False)
          (proj): Linear(in_features=768, out_features=768, bias=True)
          (ff_dropout): Dropout(p=0.0, inplace=False)
        )
        (norm_ffn): LayerNorm((768,), eps=1e-06, elementwise_affine=True)
        (ffn): FeedForward(
          (net): Sequential(
            (0): Linear(in_features=768, out_features=3072, bias=True)
            (1): GELU()
            (2): Dropout(p=0.0, inplace=False)
            (3): Linear(in_features=3072, out_features=768, bias=True)
            (4): Dropout(p=0.0, inplace=False)
          )
        )
        (drop_path): DropPath()
      )
      (3): BaseTransformerLayer(
        (norm): LayerNorm((768,), eps=1e-06, elementwise_affine=True)
        (attn): Attention(
          (to_qkv): Linear(in_features=768, out_features=2304, bias=True)
          (attn_dropout): Dropout(p=0.0, inplace=False)
          (proj): Linear(in_features=768, out_features=768, bias=True)
          (ff_dropout): Dropout(p=0.0, inplace=False)
        )
        (norm_ffn): LayerNorm((768,), eps=1e-06, elementwise_affine=True)
        (ffn): FeedForward(
          (net): Sequential(
            (0): Linear(in_features=768, out_features=3072, bias=True)
            (1): GELU()
            (2): Dropout(p=0.0, inplace=False)
            (3): Linear(in_features=3072, out_features=768, bias=True)
            (4): Dropout(p=0.0, inplace=False)
          )
        )
        (drop_path): DropPath()
      )
      (4): BaseTransformerLayer(
        (norm): LayerNorm((768,), eps=1e-06, elementwise_affine=True)
        (attn): Attention(
          (to_qkv): Linear(in_features=768, out_features=2304, bias=True)
          (attn_dropout): Dropout(p=0.0, inplace=False)
          (proj): Linear(in_features=768, out_features=768, bias=True)
          (ff_dropout): Dropout(p=0.0, inplace=False)
        )
        (norm_ffn): LayerNorm((768,), eps=1e-06, elementwise_affine=True)
        (ffn): FeedForward(
          (net): Sequential(
            (0): Linear(in_features=768, out_features=3072, bias=True)
            (1): GELU()
            (2): Dropout(p=0.0, inplace=False)
            (3): Linear(in_features=3072, out_features=768, bias=True)
            (4): Dropout(p=0.0, inplace=False)
          )
        )
        (drop_path): DropPath()
      )
      (5): BaseTransformerLayer(
        (norm): LayerNorm((768,), eps=1e-06, elementwise_affine=True)
        (attn): Attention(
          (to_qkv): Linear(in_features=768, out_features=2304, bias=True)
          (attn_dropout): Dropout(p=0.0, inplace=False)
          (proj): Linear(in_features=768, out_features=768, bias=True)
          (ff_dropout): Dropout(p=0.0, inplace=False)
        )
        (norm_ffn): LayerNorm((768,), eps=1e-06, elementwise_affine=True)
        (ffn): FeedForward(
          (net): Sequential(
            (0): Linear(in_features=768, out_features=3072, bias=True)
            (1): GELU()
            (2): Dropout(p=0.0, inplace=False)
            (3): Linear(in_features=3072, out_features=768, bias=True)
            (4): Dropout(p=0.0, inplace=False)
          )
        )
        (drop_path): DropPath()
      )
      (6): BaseTransformerLayer(
        (norm): LayerNorm((768,), eps=1e-06, elementwise_affine=True)
        (attn): Attention(
          (to_qkv): Linear(in_features=768, out_features=2304, bias=True)
          (attn_dropout): Dropout(p=0.0, inplace=False)
          (proj): Linear(in_features=768, out_features=768, bias=True)
          (ff_dropout): Dropout(p=0.0, inplace=False)
        )
        (norm_ffn): LayerNorm((768,), eps=1e-06, elementwise_affine=True)
        (ffn): FeedForward(
          (net): Sequential(
            (0): Linear(in_features=768, out_features=3072, bias=True)
            (1): GELU()
            (2): Dropout(p=0.0, inplace=False)
            (3): Linear(in_features=3072, out_features=768, bias=True)
            (4): Dropout(p=0.0, inplace=False)
          )
        )
        (drop_path): DropPath()
      )
      (7): BaseTransformerLayer(
        (norm): LayerNorm((768,), eps=1e-06, elementwise_affine=True)
        (attn): Attention(
          (to_qkv): Linear(in_features=768, out_features=2304, bias=True)
          (attn_dropout): Dropout(p=0.0, inplace=False)
          (proj): Linear(in_features=768, out_features=768, bias=True)
          (ff_dropout): Dropout(p=0.0, inplace=False)
        )
        (norm_ffn): LayerNorm((768,), eps=1e-06, elementwise_affine=True)
        (ffn): FeedForward(
          (net): Sequential(
            (0): Linear(in_features=768, out_features=3072, bias=True)
            (1): GELU()
            (2): Dropout(p=0.0, inplace=False)
            (3): Linear(in_features=3072, out_features=768, bias=True)
            (4): Dropout(p=0.0, inplace=False)
          )
        )
        (drop_path): DropPath()
      )
      (8): BaseTransformerLayer(
        (norm): LayerNorm((768,), eps=1e-06, elementwise_affine=True)
        (attn): Attention(
          (to_qkv): Linear(in_features=768, out_features=2304, bias=True)
          (attn_dropout): Dropout(p=0.0, inplace=False)
          (proj): Linear(in_features=768, out_features=768, bias=True)
          (ff_dropout): Dropout(p=0.0, inplace=False)
        )
        (norm_ffn): LayerNorm((768,), eps=1e-06, elementwise_affine=True)
        (ffn): FeedForward(
          (net): Sequential(
            (0): Linear(in_features=768, out_features=3072, bias=True)
            (1): GELU()
            (2): Dropout(p=0.0, inplace=False)
            (3): Linear(in_features=3072, out_features=768, bias=True)
            (4): Dropout(p=0.0, inplace=False)
          )
        )
        (drop_path): DropPath()
      )
      (9): BaseTransformerLayer(
        (norm): LayerNorm((768,), eps=1e-06, elementwise_affine=True)
        (attn): Attention(
          (to_qkv): Linear(in_features=768, out_features=2304, bias=True)
          (attn_dropout): Dropout(p=0.0, inplace=False)
          (proj): Linear(in_features=768, out_features=768, bias=True)
          (ff_dropout): Dropout(p=0.0, inplace=False)
        )
        (norm_ffn): LayerNorm((768,), eps=1e-06, elementwise_affine=True)
        (ffn): FeedForward(
          (net): Sequential(
            (0): Linear(in_features=768, out_features=3072, bias=True)
            (1): GELU()
            (2): Dropout(p=0.0, inplace=False)
            (3): Linear(in_features=3072, out_features=768, bias=True)
            (4): Dropout(p=0.0, inplace=False)
          )
        )
        (drop_path): DropPath()
      )
      (10): BaseTransformerLayer(
        (norm): LayerNorm((768,), eps=1e-06, elementwise_affine=True)
        (attn): Attention(
          (to_qkv): Linear(in_features=768, out_features=2304, bias=True)
          (attn_dropout): Dropout(p=0.0, inplace=False)
          (proj): Linear(in_features=768, out_features=768, bias=True)
          (ff_dropout): Dropout(p=0.0, inplace=False)
        )
        (norm_ffn): LayerNorm((768,), eps=1e-06, elementwise_affine=True)
        (ffn): FeedForward(
          (net): Sequential(
            (0): Linear(in_features=768, out_features=3072, bias=True)
            (1): GELU()
            (2): Dropout(p=0.0, inplace=False)
            (3): Linear(in_features=3072, out_features=768, bias=True)
            (4): Dropout(p=0.0, inplace=False)
          )
        )
        (drop_path): DropPath()
      )
      (11): BaseTransformerLayer(
        (norm): LayerNorm((768,), eps=1e-06, elementwise_affine=True)
        (attn): Attention(
          (to_qkv): Linear(in_features=768, out_features=2304, bias=True)
          (attn_dropout): Dropout(p=0.0, inplace=False)
          (proj): Linear(in_features=768, out_features=768, bias=True)
          (ff_dropout): Dropout(p=0.0, inplace=False)
        )
        (norm_ffn): LayerNorm((768,), eps=1e-06, elementwise_affine=True)
        (ffn): FeedForward(
          (net): Sequential(
            (0): Linear(in_features=768, out_features=3072, bias=True)
            (1): GELU()
            (2): Dropout(p=0.0, inplace=False)
            (3): Linear(in_features=3072, out_features=768, bias=True)
            (4): Dropout(p=0.0, inplace=False)
          )
        )
        (drop_path): DropPath()
      )
    )
    (norm): LayerNorm((768,), eps=1e-06, elementwise_affine=True)
    (layers_temporal): Sequential(
      (0): BaseTransformerLayer(
        (norm): LayerNorm((768,), eps=1e-06, elementwise_affine=True)
        (attn): Attention(
          (to_qkv): Linear(in_features=768, out_features=2304, bias=True)
          (attn_dropout): Dropout(p=0.0, inplace=False)
          (proj): Linear(in_features=768, out_features=768, bias=True)
          (ff_dropout): Dropout(p=0.0, inplace=False)
        )
        (norm_ffn): LayerNorm((768,), eps=1e-06, elementwise_affine=True)
        (ffn): FeedForward(
          (net): Sequential(
            (0): Linear(in_features=768, out_features=3072, bias=True)
            (1): GELU()
            (2): Dropout(p=0.0, inplace=False)
            (3): Linear(in_features=3072, out_features=768, bias=True)
            (4): Dropout(p=0.0, inplace=False)
          )
        )
        (drop_path): DropPath()
      )
      (1): BaseTransformerLayer(
        (norm): LayerNorm((768,), eps=1e-06, elementwise_affine=True)
        (attn): Attention(
          (to_qkv): Linear(in_features=768, out_features=2304, bias=True)
          (attn_dropout): Dropout(p=0.0, inplace=False)
          (proj): Linear(in_features=768, out_features=768, bias=True)
          (ff_dropout): Dropout(p=0.0, inplace=False)
        )
        (norm_ffn): LayerNorm((768,), eps=1e-06, elementwise_affine=True)
        (ffn): FeedForward(
          (net): Sequential(
            (0): Linear(in_features=768, out_features=3072, bias=True)
            (1): GELU()
            (2): Dropout(p=0.0, inplace=False)
            (3): Linear(in_features=3072, out_features=768, bias=True)
            (4): Dropout(p=0.0, inplace=False)
          )
        )
        (drop_path): DropPath()
      )
      (2): BaseTransformerLayer(
        (norm): LayerNorm((768,), eps=1e-06, elementwise_affine=True)
        (attn): Attention(
          (to_qkv): Linear(in_features=768, out_features=2304, bias=True)
          (attn_dropout): Dropout(p=0.0, inplace=False)
          (proj): Linear(in_features=768, out_features=768, bias=True)
          (ff_dropout): Dropout(p=0.0, inplace=False)
        )
        (norm_ffn): LayerNorm((768,), eps=1e-06, elementwise_affine=True)
        (ffn): FeedForward(
          (net): Sequential(
            (0): Linear(in_features=768, out_features=3072, bias=True)
            (1): GELU()
            (2): Dropout(p=0.0, inplace=False)
            (3): Linear(in_features=3072, out_features=768, bias=True)
            (4): Dropout(p=0.0, inplace=False)
          )
        )
        (drop_path): DropPath()
      )
      (3): BaseTransformerLayer(
        (norm): LayerNorm((768,), eps=1e-06, elementwise_affine=True)
        (attn): Attention(
          (to_qkv): Linear(in_features=768, out_features=2304, bias=True)
          (attn_dropout): Dropout(p=0.0, inplace=False)
          (proj): Linear(in_features=768, out_features=768, bias=True)
          (ff_dropout): Dropout(p=0.0, inplace=False)
        )
        (norm_ffn): LayerNorm((768,), eps=1e-06, elementwise_affine=True)
        (ffn): FeedForward(
          (net): Sequential(
            (0): Linear(in_features=768, out_features=3072, bias=True)
            (1): GELU()
            (2): Dropout(p=0.0, inplace=False)
            (3): Linear(in_features=3072, out_features=768, bias=True)
            (4): Dropout(p=0.0, inplace=False)
          )
        )
        (drop_path): DropPath()
      )
    )
    (norm_out): LayerNorm((768,), eps=1e-06, elementwise_affine=True)
  )
  (head): TransformerHeadx2(
    (linear1): Linear(in_features=768, out_features=97, bias=True)
    (linear2): Linear(in_features=768, out_features=300, bias=True)
    (dropout): Dropout(p=0.5, inplace=False)
    (activation): Softmax(dim=-1)
  )
)
[05/18 19:42:11][INFO] utils.misc:  156: Params: 115,060,621
[05/18 19:42:11][INFO] utils.misc:  157: Mem: 0.4286346435546875 MB
[05/18 19:42:11][INFO] utils.misc:  164: nvidia-smi
[05/18 19:42:11][INFO] models.utils.optimizer:  116: Optimized parameters constructed. Parameters without weight decay: ['backbone.pos_embd', 'backbone.temp_embd', 'backbone.cls_token', 'backbone.cls_token_out']
…
